model/keypoint_classifier/keypoint_classifier.tflite (tflite, 6720 bytes, 6 tensors)

sequential/dense/BiasAdd/ReadVariableOp f4 [20]
000000 87 3f 05 3e be 38 59 bf a8 e6 16 bf af 3d 07 3f
       0.13012515 -0.84852207 -0.58945704 0.52828497
000010 87 92 bc be c1 ec 80 bf 5f b5 83 3d c9 d2 06 be
       -0.36830541 -1.0072252 0.06431078 -0.13166346
000020 bf 6f 4d be 55 c3 ca be 32 b9 0e bf d8 c4 54 bf
       -0.20062159 -0.39602152 -0.55751336 -0.8311286
000030 38 31 8f be a6 7d 71 bf 99 b6 08 bf ec 1a 94 3d
       -0.27967238 -0.9433235 -0.5340362 0.072316974
000040 d3 32 3d bf ac 12 12 be 57 5a 1d bf 5e 77 f8 be
       -0.73905677 -0.14264935 -0.6146597 -0.4852857

sequential/dense_2/BiasAdd/ReadVariableOp f4 [8]
000000 21 51 66 bf 6c 00 fe be 67 39 b0 3d 72 50 29 3f
       -0.8996754 -0.49609697 0.08604699 0.66138375
000010 ac 75 a6 3f 50 5b dc bf dc ab 0d 3e ac c9 9d 3f
       1.3004661 -1.7215366 0.1383509 1.232717

sequential/dense_1/BiasAdd/ReadVariableOp f4 [10]
000000 29 7b 09 3e 59 61 15 bd ed 82 39 3e 17 0c 82 3e
       0.13425888 -0.03646979 0.1811635 0.2539985
000010 f7 88 85 bc b8 25 1e 3f e4 73 37 3f a7 ca 48 bf
       -0.016300661 0.61776304 0.7166121 -0.7843422
000020 c7 a6 81 3f 04 59 47 3e
       1.0129021 0.1946755

sequential/dense/MatMul f4 [20, 42]
000000 10 3f 29 3d ba ca 90 3e 4d 5b 14 bf d8 9e 1e be
       0.041319907 0.28279668 -0.57951814 -0.15490282
000010 24 6b b8 be a1 20 b7 be 04 7b 86 be e0 8d 01 bf
       -0.36019242 -0.3576708 -0.26265728 -0.5060711
000020 78 8d 80 be f8 ca 24 bf 00 ee 35 be a2 f7 f8 bc
       -0.25107932 -0.64372206 -0.17766571 -0.030391518
000030 d9 67 a7 bd c4 5a 07 3d 10 4f 27 3e a8 4e 2d 3e
       -0.08174104 0.033045545 0.16338754 0.16924536
000040 14 f0 59 3e 57 e8 8f 3e 58 31 29 be 4b 62 57 3d
       0.21282989 0.2810695 -0.1652273 0.052583974
000050 c8 b2 f4 bc fd 5b 57 bd 70 04 4e 3e 76 a1 d8 3c
       -0.029870406 -0.05257796 0.2011888 0.026444178
000060 9c 83 c3 3e a8 13 84 3e be 8d 06 be 83 a9 19 3d
       0.38186347 0.25796247 -0.13140008 0.037515175
000070 af 32 38 bd b7 a3 ba bd 45 4e 66 3e 7c 47 03 3f
       -0.04497021 -0.091132574 0.22490795 0.5128095
000080 74 dc ba 3e 69 04 a6 3f 7d 19 e3 bd 5d d9 0c 3d
       0.36496317 1.2970096 -0.11088846 0.03438698
000090 37 40 a4 bd ff 34 54 3e 97 30 62 3d 01 4e 1b 3f
       -0.080200605 0.20723341 0.05522212 0.606659
0000a0 1f 8a 6d 3e 96 07 b6 3f d8 f4 49 3e 9a e7 85 3e
       0.2319722 1.4221065 0.19722307 0.2615326
0000b0 21 43 7a 3f 94 7c 96 be fa 89 33 3f c6 f2 00 be
       0.9775868 -0.2939192 0.7013241 -0.1259261
0000c0 9b c8 ea 3e 31 bd b5 3d d4 76 96 3e 34 ac 97 3e
       0.45856175 0.08873976 0.29387534 0.29623568
0000d0 f7 62 f1 3e 8b f5 3e bb c7 55 35 3d 77 eb 92 be
       0.47145817 -0.0029138054 0.044271257 -0.2869527
0000e0 04 96 68 be a2 99 8a be 22 23 8d be d3 4c b5 bd
       -0.22713476 -0.27070338 -0.27565867 -0.08852544
0000f0 46 0b df 3e 3c dd 69 3c 7b 85 1c bd 43 0a 9c 3c
       0.43563288 0.014273938 -0.038213234 0.019047862
000100 55 e5 ab be 11 92 1e 3e 3d 49 af be 5d a4 29 3e
       -0.33573404 0.15485407 -0.34235564 0.16566606
000110 69 72 10 3f ce 00 cd 3d 73 c7 23 3e c3 f2 38 bb
       0.56424576 0.10009919 0.15994053 -0.002822087
000120 1f 07 02 be ca 3b 4a 3d b7 66 4e be fb 57 c6 bd
       -0.12698029 0.049373426 -0.2015637 -0.0968475
000130 f7 42 2d 3f ab 65 a1 bd 0f 9f ed 3e e3 a6 06 be
       0.67680305 -0.0788072 0.46410415 -0.131496
000140 57 eb 7a 3e dd d3 98 bd 89 cf 16 3e cf 89 9f bd
       0.24503838 -0.07462285 0.14727606 -0.07789957
000150 78 f1 1a 3e 2c 07 ac bd 15 14 f9 3b ab 5f ee be
       0.15131176 -0.083998054 0.007601271 -0.46557364
000160 99 ea c6 3d d5 69 c4 be ea cf 77 3d 91 fa 87 bf
       0.09712715 -0.38361993 0.060501017 -1.0623342
000170 51 24 93 3d d0 c3 82 bf a0 e1 a0 3d 63 6a b8 bc
       0.07184661 -1.0216007 0.078555346 -0.022511667
000180 0e 9b 11 bb 1f 88 08 bc 96 05 af bd 7a e9 bf 3d
       -0.0022217664 -0.008333235 -0.08545987 0.09370704
000190 32 c3 f3 bd 94 7f 80 3d 34 b7 60 3e 0c 55 0d bd
       -0.11902465 0.062743336 0.21944886 -0.034504935
0001a0 f2 52 8e 3d bb fe 77 bd fa b1 aa bd 30 86 23 3e
       0.06949414 -0.060545664 -0.083347276 0.15969157
0001b0 68 14 dc bd 4b f1 49 3e e0 80 01 3d d5 6a 67 3a
       -0.1074608 0.19720952 0.031617045 0.000882787
0001c0 05 42 3c 3e 20 13 7d bd 9e 71 9d bc 41 22 39 3d
       0.1838456 -0.061785817 -0.019219216 0.045198683
0001d0 36 3b 37 bd 5a 7a 50 3d 1b b3 9e 3c 30 d6 0a 3c
       -0.044734202 0.050897934 0.019372514 0.008473918
0001e0 57 4d 73 3d 40 18 13 3b 76 47 95 3d a6 e0 d1 3d
       0.05939993 0.0022444874 0.07289021 0.102479264
0001f0 10 be af bd 4a a0 b9 3d 40 35 67 be 82 29 96 3e
       -0.085811734 0.09063776 -0.22578907 0.29328543
000200 27 42 3d 3e 5e c4 16 40 fa 54 d1 3d be 60 f7 3f
       0.18482266 2.3557353 0.10221286 1.9326398
000210 6c ba 48 3c a1 f3 6f 3f 99 75 5d 3c 0b 88 cb 3e
       0.012251478 0.93731123 0.013516807 0.3975223
000220 70 8d 42 3e 2d c6 30 3f a3 0c 8f 3d e3 1e e5 3e
       0.18999267 0.6905239 0.06984832 0.44750127
000230 56 62 04 3c e7 b8 c6 3e a4 7c f9 ba 17 17 bd 3e
       0.008080086 0.38812944 -0.0019034338 0.3693168
000240 d7 52 c9 3d 1b 4b bc 3e 1f b5 0c 3c 45 33 45 3e
       0.098302536 0.3677605 0.0085881045 0.19257839
000250 9a f6 3a 3c a4 37 29 3e 53 3f 9a 3d c7 0f 49 3e
       0.011411333 0.16525131 0.075316094 0.19634925
000260 df 25 8d 3e 05 9a 43 3e 3d f1 1e bd ea 8f 05 be
       0.27567956 0.19101723 -0.03880428 -0.1304318
000270 f8 4e 3a 3d f4 4e 8e bd 1b 1a d6 3e 89 0b c8 bd
       0.045485467 -0.06948653 0.41816792 -0.09767825
000280 c1 3e 15 bc 80 be 42 bd a2 bb a3 be ca 34 b4 be
       -0.0091092 -0.047544956 -0.3197909 -0.35196525
000290 a8 f0 ab bd 06 82 df bd 51 68 2c 3e 76 d3 b3 bd
       -0.08395511 -0.10913472 0.16836669 -0.08780567
0002a0 4e 72 c0 bd 24 cc 6b be ad 58 ba be dc a0 41 bd
       -0.09396802 -0.23027092 -0.3639578 -0.047272548
0002b0 5c 6e 43 bd ed eb 2d bd 1d fa b6 3d be 3a d7 bd
       -0.04771267 -0.042461324 0.08934424 -0.10509251
0002c0 d9 19 23 3e 8b b4 0e be 02 fd de b9 78 ee 1d 3e
       0.15927829 -0.13936059 -0.00042531645 0.15423
0002d0 35 a0 15 3c 46 9b 80 bd 22 2a 55 bd 32 59 16 be
       0.009132435 -0.06279616 -0.052042134 -0.14682463
0002e0 cb 14 59 bd b1 85 54 3d e1 be ce 3d f6 14 3e 3e
       -0.052998345 0.05188531 0.10095001 0.18562683
0002f0 30 e2 3f 3c 13 a9 13 3d 45 83 6e bd aa ea 81 3e
       0.011711642 0.036049914 -0.058230657 0.25374347
000300 13 43 42 bd 6c e6 bc 3e 7c 3b 24 3e b3 d9 63 3e
       -0.04742725 0.36894548 0.16038316 0.22251014
000310 84 4c 31 bd 6a 3a 21 be 1d 50 1b bd 6b d9 24 be
       -0.04328586 -0.1574494 -0.0379182 -0.16098563
000320 09 56 95 be 27 73 2e 3d b5 57 4b 3e da 19 51 3e
       -0.29167202 0.042590287 0.19857676 0.20420018
000330 0e 5d 5a 3d fe be b3 be 9f 04 fd bd 65 e7 ba bf
       0.0533114 -0.35106653 -0.12354397 -1.4601866
000340 fa a7 4a 3d 35 5d a8 bf a8 bc 78 3e ee a0 95 bd
       0.0494766 -1.3153445 0.24290717 -0.073060855
000350 3b 30 e0 3e 64 60 8d bf e5 da bf 3e c5 7c 0e bf
       0.43786797 -1.1045041 0.3747169 -0.55659133
000360 1d 6c cd 3e ba 5f 97 be 7b 6b fe 3e 0c 28 d1 bd
       0.40121546 -0.2956522 0.49691376 -0.102127165
000370 09 ef e4 3e a0 39 2c bf ed 1e 23 3d 5d de 7f bd
       0.4471362 -0.6727543 0.039824415 -0.06246792
000380 65 bc 02 be 68 6f cf 3d fe a9 19 be 1a d1 af 3d
       -0.1276718 0.10128671 -0.15006253 0.08584805
000390 09 b3 da 3e 2b 4b 04 bf 41 3a a3 bc 89 73 97 3d
       0.42714718 -0.516772 -0.019925239 0.073950835
0003a0 d4 b1 2c be 37 5e 82 3e 04 12 64 be 44 02 87 3e
       -0.16864711 0.25462505 -0.22272497 0.26368916
0003b0 0e 25 ca 3e 81 e4 0d bf 22 fd 8f 3c f3 6d 6f 3d
       0.39481395 -0.55426794 0.017576758 0.058454465
0003c0 e0 89 02 be 27 c3 79 3e 9c 3d 41 be 0e 17 1c 3e
       -0.12747908 0.24390851 -0.18871158 0.1524317
0003d0 98 6a 5d 3e 0e 15 d3 be d8 37 06 3e 2e 7a 8a 3d
       0.21622694 -0.41227 0.1310724 0.06761585
0003e0 2b 2e 30 3e fe f8 32 3e 0b a7 e9 3d 27 f2 73 3d
       0.17205112 0.17477795 0.11408814 0.059557106
0003f0 e8 3e 94 3e c6 23 9f 3e 84 94 cc be 6c 4a bb be
       0.28954244 0.3108198 -0.39957058 -0.36580217

sequential/dense_1/MatMul f4 [10, 20]
000000 60 43 f9 be 63 b2 52 bd 6d fe 6b 3e 16 18 9d 3d
       -0.48684216 -0.051439654 0.23046274 0.0767061
000010 00 72 81 3f 7e fc d2 bc 8c 02 9b be e1 32 11 3f
       1.0112915 -0.025755163 -0.3027538 0.5671826
000020 50 96 3c 3f 3c 1f 15 3f 81 55 cf 3e 9f 10 df 3e
       0.7366686 0.58250785 0.40494922 0.43567368
000030 c8 16 81 3e b5 68 4a 3e cb a2 9b be 50 6f 65 3d
       0.25212693 0.19766505 -0.3039764 0.05601436
000040 c8 55 97 3f bd 35 32 3f 19 21 b7 bd 15 7b 8a 3f
       1.1823053 0.6961325 -0.0894186 1.0818812
000050 6a 89 2f 3f 8c 9d 00 3f 2d ad 55 3f 18 5b 43 3e
       0.6856905 0.502404 0.8346737 0.19077718
000060 12 87 ab ba 31 3a cb 3e 71 39 4b 3f 77 ab 22 3f
       -0.0013086519 0.39692834 0.79384524 0.63542885
000070 44 25 03 3e 8a 91 54 3f bc a5 5a bf 63 ad 5e 3d
       0.12807184 0.83034575 -0.8540914 0.054364573
000080 01 f5 26 3f 4a df ca 3e d4 cc b1 3f a4 ca a7 be
       0.65217596 0.3962348 1.3890634 -0.3277179
000090 aa cc ae be d8 68 7b 3f 3e 6f 85 3f 80 fe 94 be
       -0.3414052 0.98206854 1.0424573 -0.29100418
0000a0 40 39 c1 3e dd c4 03 3f 75 3d ac 3d 30 12 9e 3f
       0.3773899 0.51472265 0.084101595 1.23493
0000b0 fb 63 1e 3d 94 e6 ed be 89 8d de 3e 50 86 ac be
       0.038669568 -0.4646498 0.43467358 -0.33696222
0000c0 43 7b ce 3e f7 f1 75 be 97 36 e1 3c 26 51 63 3e
       0.40328416 -0.24018084 0.02749185 0.22198924
0000d0 75 a2 02 3e e4 38 1d be 94 21 8f 3e ab 2c 9f 3f
       0.12757285 -0.15353733 0.27955306 1.2435507
0000e0 8d 3d 4e be 26 7c d5 3e 12 e1 5e 3f 2c e1 d6 3d
       -0.20140667 0.4169628 0.8706218 0.10492167
0000f0 92 56 bf 3c 3c 57 ec 3e 8d c0 4d bd 93 b2 32 3f
       0.02335671 0.46160305 -0.05023246 0.6980373
000100 31 cd 12 3e 01 d9 86 3d 7b 11 1d be 5f 1a 3b be
       0.14336087 0.06584359 -0.153387 -0.18271779
000110 c4 c1 8e 3d b0 f1 be bc ff 35 88 bd bb a8 a0 3f
       0.069705516 -0.023308605 -0.06650924 1.2551492
000120 4f 66 a4 bd d7 a2 cf 3e 9f 23 8b be a8 e3 ab 3e
       -0.08027326 0.40553924 -0.27175614 0.33572125
000130 3a 3b 3a 3e a8 cb cc bd c2 e4 92 be 90 60 3d 3d
       0.18186656 -0.09999782 -0.28690153 0.046234667
000140 26 68 b0 3d e3 b4 32 bd 76 bd 05 3e 3f 90 cd bd
       0.08613615 -0.04362954 0.13060555 -0.100372784
000150 6a 94 c4 3e be df 09 3e fe 36 5d 3e 90 a9 17 bc
       0.3839448 0.13464257 0.21603009 -0.009256735
000160 93 f4 4e 3f 1c b8 1c be f0 62 18 3f 90 1e d2 3f
       0.8084194 -0.15304607 0.59525967 1.6415577
000170 ba 84 c0 3d 4c 48 fe 3d 8c 6b b7 3e 4f 03 12 3e
       0.094003156 0.12416133 0.3582424 0.14259075
000180 d4 11 96 3e 50 3e a0 3f c5 e6 7f 3e a0 f8 35 3f
       0.29310477 1.2519016 0.24990375 0.71082497
000190 17 36 96 bf 43 4c 4f 3f 40 20 d9 bf 5d 08 76 3d
       -1.1735257 0.8097574 -1.6962967 0.06006657
0001a0 57 df 33 3f f7 12 96 3e d4 15 a8 bf 25 0b 7f bf
       0.70262665 0.29311344 -1.3131661 -0.9962638
0001b0 5b 95 8e 3f 73 3f 1c bf 1b 5c c6 bf f0 9c 72 3f
       1.113933 -0.61034316 -1.5496858 0.9477072
0001c0 90 27 9f bf e0 29 00 3f c9 c7 a8 3e 59 ba 00 3d
       -1.2433949 0.50063896 0.32964924 0.031427715
0001d0 70 9e 51 3e f8 41 df 3c 2f d2 81 bf 83 c2 91 3e
       0.20470595 0.027253136 -1.0142268 0.28468713
0001e0 2c 00 12 3f 51 40 be 3d 52 0f 5e be e2 d7 07 ba
       0.5703151 0.09289611 -0.21685532 -0.00051820104
0001f0 d6 17 71 bf c3 50 96 3d b4 d8 12 bf 6e 4e 01 3d
       -0.94176996 0.07339623 -0.5736191 0.031568937
000200 02 37 e4 3c 3e 54 61 be a7 ff b0 be 5b bb 7b 3f
       0.027858261 -0.22004792 -0.34570047 0.98332757
000210 b7 bb c0 bd 04 13 81 3c 90 bb 40 bf a1 5e 33 3d
       -0.09410804 0.015756138 -0.752862 0.043791417
000220 a0 6d 54 3d 89 91 c0 bf 6a 95 ae be 92 cf 5a 3e
       0.05186236 -1.5044414 -0.3409837 0.21368244
000230 db 9e 77 3e 46 23 94 be 77 a9 85 3d ae e9 2e 3e
       0.24181692 -0.28933161 0.065264635 0.17081329
000240 c0 31 c0 bc 14 33 10 3f 12 29 6e 3e bc d0 ea bd
       -0.023461223 0.5632794 0.23257855 -0.11465594
000250 bd e8 4e be 0e f7 3d be b6 02 60 3f d3 07 56 3e
       -0.2020597 -0.18551275 0.87504137 0.20901422
000260 1e ac 10 ba 52 bb 28 3f 2a 42 3f 3f f5 7e 2c 3e
       -0.00055188115 0.6591083 0.74710333 0.16845305
000270 2f 99 8f be c9 53 18 bf 29 be 4a be d2 3e cd be
       -0.28046557 -0.59502846 -0.19799103 -0.4008699
000280 52 10 24 3f 30 a8 24 3f 81 70 3e 3f f3 ad cf 3e
       0.640874 0.64319134 0.7439042 0.405624
000290 ed 42 44 3e 93 9a e7 3e 6d a5 51 3f f3 1b e2 3e
       0.19166155 0.45235118 0.81893045 0.4416195
0002a0 6d f5 7b be 46 e8 32 be f6 0e 28 3d 1c a8 e8 3f
       -0.24605341 -0.17471418 0.041029893 1.8176303
0002b0 31 82 6a 3f 52 77 5b 3f 34 20 4c 3e 5b 5a a8 3e
       0.91604906 0.85728943 0.1993416 0.32881436
0002c0 a4 e4 0a 3e 33 84 ed be d0 4d 88 3b 3b 29 42 3e
       0.13563782 -0.46389922 0.0041596666 0.1896104
0002d0 ac 73 28 3e 37 86 78 3f 73 23 cc 3e 3a 3c 11 be
       0.16450375 0.97079796 0.39870796 -0.14183131
0002e0 53 d0 9d bc d7 b5 97 3f 3d a6 b7 bd 43 a9 13 be
       -0.019264376 1.1852368 -0.08967254 -0.14420037
0002f0 3a 0c f2 bd 21 72 91 3e 73 fd 05 be 6e 5c 49 be
       -0.11818738 0.28407386 -0.13084964 -0.19664165
000300 ea 9e e2 3d 21 c9 5e 3f ae 1c b7 3c c6 8c 2e 3e
       0.11065467 0.8702565 0.022352543 0.17045888
000310 45 6e 2c 3f 28 65 13 bf 68 d1 e5 bd 78 16 e0 3d
       0.6735576 -0.5757623 -0.11221582 0.109417856

sequential/dense_2/MatMul f4 [8, 10]
000000 72 dd dc 3e 76 6e 90 3e bc 64 d8 3e 32 0f 57 bd
       0.431377 0.28209275 0.42264354 -0.052504726
000010 af 71 14 3f a6 b4 4e be 4d ee 4f 3e 8f ad 80 3f
       0.5798597 -0.201861 0.20305748 1.0052966
000020 06 3c 77 3e f7 c6 4c bf 0b eb 1b 3f 3c 23 4e bc
       0.24143991 -0.79991096 0.6090552 -0.012581643
000030 74 c3 c4 3e c6 54 bc 3e a4 47 f0 be 96 b8 3f bf
       0.3843037 0.36783427 -0.46929657 -0.7489103
000040 df 8e 7c bf 0b 23 00 3e 3c d3 cd 3e 3a 69 43 3f
       -0.98655504 0.12513368 0.40200222 0.7633244
000050 87 d6 6c bf d7 66 5a 3e 51 06 89 3f ba 44 bf 3d
       -0.9251484 0.21328293 1.0705053 0.093392804
000060 01 c0 cf bd 4f bf 5b 3f 95 ec 6b bf 4a 28 b2 be
       -0.10144044 0.8583879 -0.9215787 -0.34796363
000070 1d b8 86 bf 40 de a0 bd 57 fb 8a 3f 29 64 bf 3d
       -1.0524937 -0.07854891 1.0857953 0.09345276
000080 15 1e 5c bf 5b bb 21 bf a9 6d 88 3e db 48 19 be
       -0.859834 -0.63176507 0.26646164 -0.14969198
000090 a0 b2 a9 3e ed cd 85 3f 21 16 c1 bf 2a 6f 30 bf
       0.33144093 1.0453469 -1.5084878 -0.6891962
0000a0 5d 05 f5 bb c3 2a ae bf ee 66 82 3e e0 d9 2c 3e
       -0.007477446 -1.36068 0.25469154 0.16879988
0000b0 58 b0 90 be a9 35 92 bf 66 83 df 3e fd 48 f1 bf
       -0.2825954 -1.1422626 0.43654937 -1.8850399
0000c0 f2 2c 96 3f 94 27 fe bf d0 5c 79 3d d2 52 ab bf
       1.1732466 -1.9855828 0.06087953 -1.338465
0000d0 fd ba ba bf 3c d2 69 3f 61 55 99 bd 5c 53 a2 3f
       -1.4588314 0.9133642 -0.07486988 1.2681689
0000e0 d1 27 4e 3f 59 6d f3 be 98 67 6f bd 13 fd 5e bd
       0.80529505 -0.47544363 -0.058448404 -0.05444057
0000f0 52 bb 44 bf b0 d8 7a 3f a8 62 1f bf 22 4c 71 bf
       -0.7684833 0.9798689 -0.6225991 -0.94256794
000100 b5 6b c6 bf 12 9d 84 bf ad 2b 00 bf e0 a7 62 bf
       -1.550162 -1.0360434 -0.50066644 -0.88537407
000110 fe d8 0b 3f ca 16 ab 3e 71 ea 27 bf 78 4c b4 bf
       0.5462798 0.33415824 -0.65592104 -1.4085836
000120 11 c4 b6 bf 42 f1 0e 3f 80 86 43 be 88 d9 4b 3c
       -1.4278585 0.5583688 -0.19094276 0.012442
000130 a8 4b 8d 3e 3d df a2 be 54 42 d8 3e e5 10 ff 3e
       0.27596784 -0.31810942 0.42238104 0.49817577
