model/keypoint_classifier/keypoint_classifier.tflite (tflite, 6720 bytes, 6 tensors)

sequential/dense/BiasAdd/ReadVariableOp f4 [20]
0	0x3e579ac3	0.2105513
1	0xbed90bc6	-0.42391795
2	0xbe403d3f	-0.18773364
3	0xbf22ff6a	-0.6367098
4	0xbf51b8ea	-0.8192278
5	0x3e3841dd	0.17993875
6	0xbf1273b6	-0.5720781
7	0xbe557def	-0.20848821
8	0xbf24d615	-0.64389163
9	0xbeb58257	-0.35451004
10	0xbf86b8ba	-1.0525124
11	0xbf1a7ecd	-0.6034973
12	0x3e98ab95	0.29818407
13	0xbf0c01df	-0.54690355
14	0xbe9ad00b	-0.3023685
15	0xbdd99346	-0.10623793
16	0xbebc315a	-0.36756402
17	0xbed94f1a	-0.42443162
18	0xbe8ef2e1	-0.27919677
19	0xbe9b75b8	-0.3036325

sequential/dense_2/BiasAdd/ReadVariableOp f4 [8]
0	0xbee14660	-0.43999004
1	0xbf14e388	-0.58159685
2	0x3f23c772	0.63976204
3	0x3dd1f467	0.10251694
4	0x3f870c05	1.0550543
5	0xbf137c3b	-0.57611436
6	0x3ef2bf34	0.474115
7	0xbd8c133a	-0.06839605

sequential/dense_1/BiasAdd/ReadVariableOp f4 [10]
0	0x3e8c9cb3	0.27463302
1	0x3d69583e	0.05696892
2	0x3e33c1bc	0.17554373
3	0x3f9d210b	1.2275709
4	0x3f4eee12	0.80832016
5	0x3da5edfd	0.08102033
6	0xbec73b34	-0.38912356
7	0x3c6353f6	0.013874998
8	0x3f2bc418	0.6709609
9	0x3e5d6227	0.21619473

sequential/dense/MatMul f4 [20, 42]
0	0x3e1202d4	0.14258891
1	0x3db15958	0.08659619
2	0xbddc87e0	-0.107681036
3	0x3fd30767	1.6486634
4	0x3e21323c	0.15741819
5	0x3f9c6989	1.2219707
6	0x3d8e07f5	0.069351114
7	0x3f3fe5db	0.74960107
8	0x3c9b7584	0.018976934
9	0x3f66efe7	0.9020981
10	0x3e744a42	0.23856452
11	0x3fa255a1	1.2682382
12	0xbc9c4fb0	-0.019080967
13	0x3f2cc37a	0.67485774
14	0xbd8d5233	-0.06900444
15	0x3d6ed8b9	0.05831215
16	0x3df831b4	0.12118855
17	0xbe9d8062	-0.3076201
18	0x3e911cb3	0.28342208
19	0x3f32ca95	0.69840366
20	0xbcaefe29	-0.021361427
21	0x3e879506	0.26480883
22	0xbd9cc2dc	-0.07654354
23	0x3f0f5c44	0.5600016
24	0x3d5c421f	0.053773995
25	0x3e8c0f46	0.27355403
26	0x3e9fa00b	0.3117679
27	0x3e23943e	0.15974519
28	0x3af4bb52	0.0018671548
29	0xbd7fb804	-0.06243135
30	0xbe21416e	-0.15747616
31	0x3ebf4055	0.3735377
32	0xbe7aac73	-0.24479847
33	0x3f0d40eb	0.5517718
34	0x3d9171d7	0.07101791
35	0xbf123828	-0.5711694
36	0x3db9c342	0.090704456
37	0xbf2e2918	-0.68031454
38	0xbe6b7d4f	-0.2299702
39	0xbd7ce4be	-0.061741583
40	0xbe22f32a	-0.15913072
41	0x3e14d5cf	0.14534687
42	0xbe50f122	-0.20404485
43	0xbe7e28c8	-0.24820244
44	0x3e185146	0.14874753
45	0xbcd617af	-0.02613434
46	0x3db89cab	0.09014257
47	0x3d93c7c1	0.072158344
48	0x3d8a1f01	0.06744195
49	0x3d0dbed4	0.034605816
50	0x3d95e022	0.073181406
51	0xbac87dcd	-0.0015296281
52	0x3d08a17b	0.033357125
53	0x3dfede72	0.12444772
54	0x3d04932e	0.032366924
55	0x3de1fd9b	0.110346995
56	0xbb89eb49	-0.0042089564
57	0x3e0bc30d	0.13648625
58	0xbda4f5bd	-0.08054683
59	0x3e1108b1	0.14163472
60	0x3bf4d1f2	0.0074713165
61	0x3e175a0c	0.14780444
62	0x3cbb55f0	0.022868127
63	0x3dbbac0c	0.09163675
64	0x39c9f1aa	0.0003851776
65	0x3e16110c	0.1465494
66	0xbe868523	-0.2627345
67	0xbfc536ce	-1.540735
68	0x3db891fa	0.09012218
69	0x3e284812	0.16433743
70	0x3d69656a	0.05698148
71	0x3d827c26	0.06371336
72	0x3d1de2a1	0.03854621
73	0xbd80580f	-0.06266796
74	0xbdf7fa4d	-0.12108288
75	0xbd293da8	-0.041318566
76	0x3dc49022	0.09597804
77	0x3e6a9ee4	0.22912174
78	0x3d70c135	0.058778007
79	0x3de40deb	0.11135467
80	0x3d2b2f97	0.041793432
81	0xbdb2ad05	-0.08724407
82	0xbe834462	-0.2563811
83	0xbe22a441	-0.1588297
84	0xbd13c248	-0.036073953
85	0x3e2c580e	0.16830465
86	0xbdab19b8	-0.08354515
87	0x3f777746	0.9666637
88	0xbd904bca	-0.070457056
89	0x3ed97dbf	0.4247875
90	0xbdd9a429	-0.10627014
91	0x3e8ea6b2	0.27861553
92	0xbdec0333	-0.11524048
93	0x3e759868	0.2398392
94	0x3d870992	0.06593622
95	0x3e3ff184	0.18744475
96	0x3d10fbe7	0.035396483
97	0x3dfd007c	0.12353608
98	0x3da997d7	0.08280914
99	0x3d4e48b7	0.050362315
100	0x3e4019fa	0.1875991
101	0xbfd2771f	-1.6442603
102	0x3d6b34a4	0.05742325
103	0x3e41f342	0.18940452
104	0x3c0ca6c8	0.008584686
105	0x3dde848d	0.10865126
106	0x3d9b351a	0.07578488
107	0x3db9a39b	0.090644084
108	0x3e05e40d	0.13075276
109	0x3d858d65	0.065211095
110	0x3da819f2	0.08208074
111	0x3e219ff3	0.15783672
112	0xbd211ad3	-0.039332222
113	0x3dcab6c8	0.09898144
114	0xbde42169	-0.11139185
115	0x3d9d3e27	0.0767787
116	0xbdf813da	-0.121131614
117	0x3ca0d850	0.019634396
118	0x3d28298b	0.041055243
119	0x3e032483	0.12806897
120	0x3ac06830	0.0014679488
121	0x3d2f2a58	0.04276499
122	0xbd010a78	-0.031504124
123	0xbd2afa3d	-0.041742552
124	0xbda9c609	-0.08289725
125	0xbcb74b8c	-0.02237489
126	0x3e367e06	0.17821512
127	0xbde8112c	-0.113314
128	0xbed8ca2f	-0.42341754
129	0xbdddd030	-0.10830724
130	0xbe0e760b	-0.13912217
131	0x3dd51af3	0.10405531
132	0x3c971185	0.018440971
133	0xbdc6db2d	-0.09709773
134	0x3e092958	0.13394678
135	0xbe5f0943	-0.21780877
136	0xbe092f80	-0.13397026
137	0x3dd12c8a	0.10213573
138	0xbe00329b	-0.12519304
139	0x3d1c56ec	0.038168833
140	0xbd97e5cb	-0.074168764
141	0x3dd412e8	0.103551686
142	0xbcd64b62	-0.026158992
143	0x3d6f8a8b	0.058481734
144	0xbc5097e9	-0.012731531
145	0x3c8a21d6	0.016861837
146	0xbd7f19a3	-0.06228031
147	0xbc5ac1b0	-0.013351843
148	0xbce50d39	-0.027960407
149	0x3de09f4b	0.10967883
150	0x3c41ac14	0.011820812
151	0x3e438c01	0.19096376
152	0x3d40401e	0.046936147
153	0xbce09596	-0.027415078
154	0xbd488cf7	-0.04896256
155	0xbea1b7cc	-0.31585538
156	0x3e59e9f3	0.21280651
157	0xbf3080f8	-0.6894679
158	0x3f596aad	0.849284
159	0xbe89e707	-0.26934072
160	0x3dcad519	0.099039264
161	0xbe178b19	-0.14799155
162	0xbda79d33	-0.0818428
163	0xbeb965b0	-0.36210394
164	0xbd289005	-0.041152973
165	0xbf1647c1	-0.5870324
166	0x3de8834c	0.11353168
167	0xbe89fd89	-0.26951244
168	0xbe6d00d6	-0.2314485
169	0x3dbba598	0.09162444
170	0xbf117188	-0.5681386
171	0x3eac75f4	0.3368374
172	0xbea78adc	-0.3272313
173	0x3e6e8288	0.23291981
174	0xbe5831d6	-0.21112761
175	0x3eb40045	0.35156456
176	0xbd142c5c	-0.036175117
177	0x3ebc68bb	0.36798653
178	0xbdbf57fa	-0.09342952
179	0x3ddddfc4	0.108336955
180	0xbdf9e987	-0.12202745
181	0xbd87a898	-0.066239536
182	0xbbf8ed87	-0.007596675
183	0x3dd1bc43	0.10240986
184	0x3d765e3f	0.060148474
185	0x3e3bd3c1	0.18342496
186	0xbda354c9	-0.07975156
187	0x3ea2859b	0.31742558
188	0xbd191655	-0.037374813
189	0x3ef42d0e	0.47690624
190	0x3e03f9a7	0.12888204
191	0x3fa5f985	1.2966772
192	0x3e5a0efb	0.21294777
193	0x3fe8c28a	1.8184369
194	0x3d2c0784	0.041999355
195	0x3e592578	0.212057
196	0xbc314b1f	-0.010821133
197	0xbea7f086	-0.32800692
198	0x3e5b52c5	0.21418293
199	0x3d461850	0.04836303
200	0x3e93e560	0.28885937
201	0x3eb66b56	0.35628766
202	0x3e21b2b4	0.15790826
203	0xbe40a199	-0.18811645
204	0xbcb662d3	-0.02226392
205	0xbf51e553	-0.81990546
206	0x3daf2d7f	0.085535996
207	0xbea6398b	-0.32465777
208	0x3e4f2fa4	0.20233017
209	0xbe05df8e	-0.1307356
210	0xbe8c6068	-0.27417302
211	0x3e922a9c	0.28548133
212	0xbf05c37c	-0.5225141
213	0xbd857506	-0.06516461
214	0xbe6a013a	-0.2285203
215	0x3e933303	0.28749856
216	0xbe16aa44	-0.14713389
217	0x3ef1afa9	0.4720433
218	0xbdf5417f	-0.11975383
219	0x3f0cef22	0.5505239
220	0x3d4cf6a2	0.050039895
221	0xbdaf58f6	-0.0856189
222	0xbd42e39c	-0.047580346
223	0xbe66277b	-0.22475998
224	0x3db73057	0.08944767
225	0x3eac4906	0.33649462
226	0x3dee35b1	0.116313346
227	0x3f224fd6	0.6340307
228	0x3e84b2d0	0.25917673
229	0xbe55fb35	-0.20896609
230	0xbd0cad0a	-0.03434471
231	0xbdbf8c4b	-0.09352931
232	0x3d8107fb	0.0630035
233	0x3f4bf6c9	0.7967344
234	0x3e1b026e	0.15137646
235	0x3fd3539e	1.6509893
236	0x3e8eb8fb	0.27875504
237	0xbedbdf1d	-0.4294366
238	0xbdce3b99	-0.10069961
239	0xbf058c78	-0.52167463
240	0xbceedcf4	-0.029158093
241	0x3ecd82c3	0.40138826
242	0x3e0cfe80	0.13768959
243	0x3f982931	1.1887571
244	0x3ecfd06a	0.40588695
245	0xbe996794	-0.29961836
246	0xbe756d07	-0.23967372
247	0xbe84b1ed	-0.25916997
248	0xbd6e1cd7	-0.058132973
249	0x3e9076e3	0.28215703
250	0xbd403f6f	-0.046935495
251	0x3f0c3a6e	0.54776657
252	0xbe9ea96f	-0.30988643
253	0xbd12ee48	-0.035871774
254	0xbec8d1f5	-0.39222685
255	0xbe245ce7	-0.16051064

sequential/dense_1/MatMul f4 [10, 20]
0	0xbf094fb1	-0.53637224
1	0xbfa3f03d	-1.280769
2	0x3f545a35	0.82950145
3	0x3f007260	0.5017452
4	0xbf4d2035	-0.8012727
5	0xbf68f741	-0.9100228
6	0x3f01c069	0.5068422
7	0x3f548efc	0.83030677
8	0x3f117527	0.56819385
9	0xbf92c526	-1.1466415
10	0x3e2c5f9e	0.1683335
11	0xbf8ad98b	-1.0847639
12	0xbec6fcc3	-0.38864717
13	0x3fa8383a	1.3142159
14	0xbe008b14	-0.12553054
15	0xbfc18995	-1.5120112
16	0xbf7a068c	-0.9766624
17	0xbf187821	-0.595583
18	0xbdab9132	-0.08377303
19	0xbf203eb3	-0.6259567
20	0x3f18db8f	0.5971002
21	0x3ca037e4	0.0195579
22	0x3fcb7b39	1.589698
23	0x3d82ff2e	0.06396328
24	0x3f264fb0	0.64965343
25	0x3f155306	0.5832981
26	0xbd7fccfe	-0.062451355
27	0x3fcb5a6d	1.5886971
28	0x3c60b1d0	0.013714269
29	0x3ce4950f	0.027903108
30	0x3ea2ff2f	0.31835315
31	0x3d276b1b	0.040873628
32	0x3ea27b43	0.31734666
33	0x3cf7a0c5	0.030228028
34	0x3ec1805a	0.37793237
35	0x3c4d4f01	0.012531043
36	0x3d80c86c	0.062882274
37	0x3e32db89	0.17466559
38	0x3e5bdc0c	0.2147066
39	0xba5abca8	-0.0008344152
40	0xbdba58f2	-0.09098996
41	0x3f445a74	0.7670052
42	0x3db68abd	0.08913181
43	0x3ee0d0af	0.43909213
44	0xbf10856e	-0.564536
45	0x3e87d3b3	0.265287
46	0xbb90e28c	-0.0044215377
47	0x3dd0c660	0.10194087
48	0x3e8f6267	0.28004763
49	0x3ef8840d	0.48538247
50	0x3d6d8143	0.0579846
51	0x3fad9fa6	1.3564346
52	0xbebb3b12	-0.36568505
53	0x3f38c745	0.7217906
54	0x3dd215c2	0.10258056
55	0x3f93a374	1.1534257
56	0x3e424ffa	0.18975821
57	0xbdbd4c67	-0.09243088
58	0xbf2d7d69	-0.67769486
59	0xbdcb3238	-0.09921688
60	0xbde697e7	-0.11259442
61	0xbe620134	-0.22070771
62	0xbdb193bc	-0.08670756
63	0xbf2882d0	-0.65824604
64	0xbee3a61b	-0.44462666
65	0x3e45870c	0.19289798
66	0x3db121d0	0.08649027
67	0xbd99f5c0	-0.07517576
68	0xbeedade5	-0.46421733
69	0xbdf85c08	-0.121269286
70	0x3e02012e	0.12695763
71	0xbf816325	-1.0108382
72	0x3f52f531	0.8240538
73	0xbf6fb08b	-0.9362876
74	0xbdd96f0c	-0.10616884
75	0xbfcdf2e2	-1.6089747
76	0x3f240d59	0.64082867
77	0x3f486e1c	0.78293014
78	0x3d9dc119	0.07702846
79	0x3e199b2f	0.15000604
80	0xbf5c49a7	-0.86049885
81	0xbef175d8	-0.4716022
82	0x3ec480b1	0.38379434
83	0xbf565111	-0.8371745
84	0x3dc47145	0.09591917
85	0x3e388f1e	0.18023345
86	0x3e950b64	0.29110253
87	0x3f0d1ff3	0.55126876
88	0xbf4e3180	-0.8054428
89	0xbe9fd706	-0.31218737
90	0x3f04e85c	0.5191705
91	0xbe3599a8	-0.17734396
92	0x3dd25b22	0.102712885
93	0xbfc17e3f	-1.5116652
94	0x3d86c901	0.06581307
95	0xbe0df38d	-0.13862438
96	0xbff9e758	-1.9523726
97	0xbf486ca0	-0.7829075
98	0x3f0b126d	0.5432499
99	0xbf961714	-1.1725793
100	0xbd9014fd	-0.07035253
101	0x401869f0	2.381466
102	0x3efdca93	0.49568614
103	0x3df7d673	0.1210145
104	0xbea0c294	-0.3139845
105	0xbd4c1df9	-0.04983327
106	0x3f23e628	0.64023066
107	0x3f4ba103	0.7954256
108	0x3eeaa04b	0.4582542
109	0x3faf116b	1.367719
110	0xbcdd94bf	-0.027048467
111	0x3e3131c7	0.17304145
112	0x3e8b70fc	0.27234638
113	0x3fa2cc8d	1.2718674
114	0xbdd94f8f	-0.10610878
115	0x3ec1830b	0.3779529
116	0x3d07df69	0.033172045
117	0x3e2b439a	0.16725007
118	0x3f8a6900	1.0813293
119	0xbca0ab0a	-0.019612808
120	0xbd9bc4de	-0.07605909
121	0xbd0bd601	-0.034139637
122	0xbdf64cb1	-0.120263465
123	0xbd867954	-0.0656611
124	0x3f030062	0.5117246
125	0x3e9475ee	0.28996223
126	0xbe87e584	-0.26542294
127	0x3da88626	0.08228712
128	0xbed7ddd3	-0.42161426
129	0xbea2e5dd	-0.31815997
130	0x3f39b6a1	0.72544295
131	0xbe785380	-0.24250603
132	0x3f39d880	0.7259598
133	0xbd3c807e	-0.046020977
134	0xbe39be3e	-0.18138978
135	0xbe65d479	-0.22444333
136	0x3effec42	0.49984938
137	0x3f4ab96d	0.7918919
138	0x3e943382	0.28945547
139	0x3fa7f21e	1.3120763
140	0x3ec81040	0.39074898
141	0x3d908934	0.070574194
142	0x3fab6d48	1.3392725
143	0xbd03ca55	-0.03217538
144	0x3e5a276d	0.21304102
145	0x3f34253c	0.70369315
146	0xbef72443	-0.48269853
147	0x3fb8bd14	1.4432702
148	0x3d24ac1f	0.04020321
149	0x3d5d49d1	0.054025475
150	0x3f04c13d	0.5185736
151	0x3d33cff6	0.0438995
152	0xbc41dfd9	-0.011833155
153	0x3d4d910c	0.050187156
154	0x3eea11a5	0.45716587
155	0x3e301ae5	0.1719776
156	0xbebd62d0	-0.3698945
157	0xbf07e611	-0.5308543
158	0x3e83c5a8	0.25736737
159	0xbf18ae97	-0.596414
160	0xbe13bdce	-0.14427873
161	0xbf2cac2e	-0.67450225
162	0xbefe073b	-0.4961489
163	0x3ee8aab0	0.45442724
164	0xbe09905a	-0.13433972
165	0xbe7cb557	-0.2467855
166	0x3f81462a	1.0099537
167	0xbee1ac5f	-0.4407682
168	0x3ee7aa49	0.45247105
169	0xbd3f951b	-0.046773057
170	0x3f7ad4f8	0.97981215
171	0xbed4dfbb	-0.41576943
172	0x3d9efaa6	0.07762651
173	0x3e6aee7a	0.22942534
174	0xbd5ebd3d	-0.05437969
175	0xbf6ba4d0	-0.9204836
176	0x3e9e61b7	0.30933926
177	0x3ef446c7	0.4771025
178	0x3ec88a6d	0.3916811
179	0x3ead798d	0.33881798
180	0x3f518608	0.8184514
181	0x3ebe3ad5	0.3715426
182	0x3d941c5a	0.0723197
183	0x3ef622a2	0.48073298
184	0x3fca185e	1.5788686
185	0x3f5d7dbe	0.8651999
186	0x3e46896f	0.19388364
187	0x3dbf9efe	0.09356497
188	0x3ed52125	0.4162685
189	0x3eb3e803	0.35137948
190	0xbd93319a	-0.07187195
191	0x3f1be392	0.6089412
192	0x3cfcfa08	0.030880943
193	0x3e2a5c23	0.1663671
194	0x3ff87acb	1.9412473
195	0x3f93fe3c	1.1561961
196	0x3f083632	0.53207695
197	0x3ee8d0d2	0.45471817
198	0x3ec0fe2a	0.37693912
199	0x3edea2f2	0.43483692

sequential/dense_2/MatMul f4 [8, 10]
0	0x3cda3b32	0.026639555
1	0x3f402134	0.75050664
2	0x3f0d9f80	0.553215
3	0xbe9c4072	-0.30517918
4	0xbf2662ea	-0.6499468
5	0x3eca22fa	0.3947981
6	0x3f725036	0.9465364
7	0xbf106cdf	-0.56416124
8	0xbf071d66	-0.52779233
9	0x3dbc7379	0.09201712
10	0xbeedb047	-0.4642355
11	0xbd2398d4	-0.03994067
12	0xbedcdf4e	-0.43139118
13	0xbceca4ef	-0.02888724
14	0xbf135fa7	-0.5756783
15	0x3c688298	0.014191292
16	0xbe2ae0fd	-0.16687389
17	0x3e9406f5	0.28911558
18	0x3f8d710c	1.1050124
19	0x3ebc4b05	0.36775985
20	0xbf902460	-1.1261101
21	0x3ed0fcbd	0.40817824
22	0xbe849187	-0.2589228
23	0xbfb7656a	-1.4327824
24	0x3f37a87c	0.7174146
25	0xbf8f9854	-1.1218362
26	0xbf8f6b76	-1.120467
27	0x3ed31414	0.41226256
28	0xbf473f1c	-0.7783067
29	0x3e25b67b	0.16182892
30	0xbcbd9ffb	-0.023147574
31	0xbfe2852d	-1.7696892
32	0x3f385e89	0.7201925
33	0xbeea8c79	-0.45810297
34	0xbf0e0c2f	-0.5548734
35	0x3ed985d8	0.42484927
36	0x3f102cba	0.5631825
37	0xbfec0d80	-1.844162
38	0xbe884270	-0.26613188
39	0x3e4dc0d1	0.20093085
40	0xbe794eda	-0.24346486
41	0x3e6a6d16	0.22893175
42	0xbf4f01a1	-0.8086186
43	0x3f930de0	1.1488609
44	0xbf6b58eb	-0.91932553
45	0x3f14a368	0.5806184
46	0xbfc015dc	-1.5006671
47	0x3e14b298	0.14521253
48	0xbfc9aa33	-1.5755066
49	0xbd868de2	-0.06570031
50	0x3fb1b6de	1.3883932
51	0x3ddd33c1	0.10800887
52	0xbf50deaf	-0.8158979
53	0xbf7f9544	-0.99837136
54	0xbdaff798	-0.08592147
55	0xbd3f46c8	-0.04669836
56	0xbf3219b6	-0.6957048
57	0x3ea8d58d	0.32975426
58	0x3ef52401	0.4787903
59	0xbf8315cf	-1.024103
60	0xbf540968	-0.8282685
61	0xbf3ce7a5	-0.7379096
62	0xbe27ed8b	-0.16399209
63	0x3f65a259	0.8970085
64	0xbda54b4b	-0.080710016
65	0xbfebfef1	-1.8437177
66	0x3f77c4ec	0.96784854
67	0xbf596267	-0.84915775
68	0x3e7f41f3	0.24927501
69	0xbf6f2ed2	-0.9343082
70	0xbede3bd0	-0.43405008
71	0xbd250e0f	-0.04029661
72	0xbc0f4dd3	-0.008746582
73	0x3d800315	0.06250588
74	0x3fa40346	1.2813499
75	0x3eeaa61f	0.45829865
76	0xbf8327fb	-1.0246576
77	0x3c521c2c	0.0128240995
78	0x3e05d00f	0.1306765
79	0xbf8f5da1	-1.1200448
